simple_lstm_model.pth (torch, 20780 bytes, 5 tensors)

lstm.weight_ih_l0 f4 [128, 1]
-0.103962526 -0.1602229 -0.0689219 0.07257518 0.016057169 0.11836216 0.080352515 0.13922428
0.161795 -0.019289097 -0.035804164 -0.16017894 0.076524004 -0.06795295 -0.0008066462 -0.07258938
-0.07336905 0.082126975 0.12780967 -0.018886065 0.037110962 -0.04369519 0.003544296 -0.037161212
-0.08842336 0.09940036 -0.06183294 0.12937756 -0.023234935 0.055397257 -0.14977767 -0.03447173
0.17327587 0.005265802 0.044674367 0.10632874 -0.12983826 0.073520616 -0.13860747 0.1185952
-0.055081524 -0.092919745 0.067006975 0.1437717 0.164021 -0.1562626 -0.065117516 -0.09430387
-0.070757665 0.0048807114 0.059713617 -0.085762426 -0.07362561 -0.014625013 -0.02360034 0.024540693
-0.10547019 0.051870868 0.16729124 0.09863751 0.14836691 -0.12125901 -0.08724418 0.1099437
0.03757797 0.1529778 -0.09062172 0.006862111 0.09266307 -0.10425037 0.0017985288 0.12832125
-0.08401911 0.008013962 -0.053903747 0.1106608 -0.11647993 -0.086901814 0.15158884 0.16098507
0.1277734 -0.17003787 0.17394678 -0.17483988 0.09969485 -0.051519316 -0.09308665 0.10540195
0.22861739 0.026949394 -0.16583866 0.0043606507 -0.03973262 0.08850697 0.13476671 0.14197136
0.080124035 -0.018366208 0.1543226 -0.14115803 0.14309905 -0.0657621 -0.04893934 0.22552197
0.062516786 0.12410555 0.111723065 -0.013442991 0.1721244 -0.0773681 -0.039700747 -0.12891783
-0.11250621 0.0150970975 -0.14868936 0.08067524 0.18011367 0.036993477 0.050695103 0.068807475
-0.018096602 0.030113682 -0.115408204 0.028319221 0.0426421 0.09701047 0.027014647 -0.18349724
00000000: 4eea d4bd 7911 24be ed26 8dbd 4ca2 943d
00000010: 538a 833c dc67 f23d dc8f a43d cf90 0e3e
00000020: 97ad 253e 2b04 9ebc 63a7 12bd f305 24be
00000030: 9eb8 9c3d eb2a 8bbd 1c75 53ba bea9 94bd
00000040: 8342 96bd 3032 a83d 8ae0 023e f3b6 9abc
00000050: aa01 183d baf9 32bd 6b47 683b 5b36 18bd
00000060: 4e17 b5bd 6a92 cb3d 8944 7dbd 8d7b 043e
00000070: 3157 bebc 3ce8 623d 515f 19be 3b32 0dbd
00000080: 3b6f 313e c08c ac3b 78fc 363d e2c2 d93d
00000090: 52f4 04be fa91 963d 1eef 0dbe 0ae2 f23d
000000a0: 2a9d 61bd b54c bebd f43a 893d e338 133e
000000b0: 1ff5 273e 4e03 20be 555c 85bd 6322 c1bd
000000c0: 65e9 90bd 60ee 9f3b 4496 743d 36a4 afbd
000000d0: 06c9 96bd c09d 6fbc 8055 c1bc 9009 c93c
000000e0: c100 d8bd 8c76 543d 654e 2b3e 7602 ca3d
000000f0: 7fed 173e a556 f8bd 14ad b2bd 2a2a e13d
00000100: 5ceb 193d 36a6 1c3e e197 b9bd 8fdb e03b
00000110: 23c6 bd3d 3881 d5bd 9dbc eb3a a566 033e
00000120: 3612 acbd fe4c 033c 2dca 5cbd 21a2 e23d
00000130: 088d eebd 94f9 b1bd 1b3a 1b3e 45d9 243e
00000140: 08d7 023e 681e 2ebe 1b1f 323e 3a09 33be
00000150: d02c cc3d eb05 53bd 37a4 bebd fadc d73d
00000160: ad1a 6a3e fac4 dc3c 9cd1 29be cae3 8e3b
00000170: acbe 22bd 2443 b53d 4900 0a3e f160 113e
00000180: 1218 a43d bb74 96bc be06 1e3e bb8b 10be
00000190: 8f88 123e 48ae 86bd 9e74 48bd 3bef 663e
000001a0: cd08 803d 0d2b fe3d 10cf e43d fe3f 5cbc
000001b0: 6141 303e 2b73 9ebd 409d 22bd 0903 04be
000001c0: a869 e6bd d159 773c 0642 18be 0f39 a53d
000001d0: b86f 383e 7986 173d aba5 4f3d efea 8c3d
000001e0: 533f 94bc f8b0 f63c 235b ecbd b6fd e73c
000001f0: 7ca9 2e3d 6dad c63d d24d dd3c b3e6 3bbe

lstm.weight_hh_l0 f4 [128, 32]
0.04973927 -0.10173644 0.1580462 0.027075723 0.08795433 0.1649053 0.034556642 -0.058753803
-0.09470222 0.14977406 -0.06854658 0.027943954 0.048077926 -0.007832006 -0.083988614 -0.048222378
-0.010849655 -0.117830954 -0.01910013 -0.12612933 0.15370049 -0.16816127 0.10059707 0.04141943
0.10690473 -0.12987937 -0.09679755 0.12095107 0.047304943 -0.07420058 0.08691467 0.007338479
0.17416252 0.09875901 -0.06851798 0.10746883 0.13948594 0.05111766 -0.085470565 0.10932289
-0.15999392 0.15821935 -0.14169389 -0.065175526 0.1634896 -0.018559068 0.09556897 -0.08389878
-0.0010397434 0.003196925 0.13639332 -0.13769065 0.12186487 -0.034595832 0.10078086 0.10665126
-0.077373266 -0.018851757 -0.14040014 -0.02492173 -0.0751442 -0.1216184 -0.15220112 -0.0022371113
-0.12618825 0.019683018 0.017170265 0.13942592 0.07862757 0.05222094 -0.14427234 -0.050293624
0.04083948 -0.0047062486 0.11330418 0.16031547 0.17297246 -0.102990076 0.1322697 0.057131782
0.083667025 -0.1249182 0.16671778 -0.10973497 -0.16700044 0.00966379 0.1050158 -0.11415326
0.16327257 -0.043605104 0.03218943 0.114051595 8.4519386e-05 0.055417925 -0.10537448 0.029170692
-0.08666368 0.11403109 0.060044885 0.124402985 0.12919359 -0.04468833 0.13653986 0.050243422
-0.060654372 -0.14505324 0.07525812 -0.11900169 0.14322121 -0.05656109 0.1001143 -0.038349688
-0.14531866 -0.16744675 -0.026663989 -0.17529443 0.041748136 -0.06766221 0.0015090406 -0.1480034
0.02445057 -0.10411205 0.09154637 0.08262955 0.16850065 0.0077240467 0.057445437 0.0029204637
-0.16251865 -0.15211967 0.0976689 0.1724918 -0.115289286 -0.047541037 0.13244085 0.013602942
-0.024368316 -0.16469315 0.022196084 -0.029486552 0.06991126 -0.16793455 0.17102577 0.17028682
-0.062952936 -0.14561588 -0.05821559 0.026202932 -0.03919202 -0.11229994 0.12921394 0.0153705925
-0.04289666 0.0046033263 0.17590384 0.057356447 0.07673238 -0.0019871593 -0.08675785 -0.13077255
-0.16407572 0.16518636 -0.16554329 -0.015214279 0.12176184 -0.15617482 -0.10802066 -0.007230878
0.024948567 -0.12753588 0.12725951 0.13766609 0.005982235 0.0030037612 -0.10689686 -0.09609861
-0.097250395 0.023155093 0.13716136 0.072393805 -0.029655784 0.15078063 -0.024074048 -0.042873994
-0.14070767 -0.06276435 -0.13958035 0.072011635 0.0873761 -0.09738649 -0.065997705 -0.0059995055
-0.16493897 0.008202389 -0.1406369 0.123106614 -0.096912 0.13177885 -0.15139677 0.056081504
0.16656722 -0.07399933 0.088100955 -0.15973073 0.06507161 0.14959939 0.05369313 -0.14747852
0.13248931 0.110549435 0.14513843 -0.03292036 -0.052704737 -0.14838597 -0.13828722 0.14653893
-0.1503906 -0.061766647 -0.08980358 -0.027884841 0.059915602 0.13281168 0.037561968 -0.07001167
0.1386274 -0.07124537 0.12306537 0.15947078 -0.024562865 -0.1243992 -0.09669602 -0.047395334
-0.09164216 -0.1253288 -0.08419825 0.01124832 -0.0463783 0.097481385 0.075399056 -0.030555144
0.09536095 -0.0022687167 -0.04609908 0.022925034 0.119236365 -0.044636592 -0.03660357 0.17230336
-0.14197198 0.05962597 0.10434078 0.0030123144 -0.0661216 0.026715815 -0.046050042 -0.147825
00000000: 68bb 4b3d 325b d0bd ddd6 213e e8cd dd3c
00000010: 6621 b43d efdc 283e 448b 0d3d d4a7 70bd
00000020: 3df3 c1bd 5f5e 193e 2662 8cbd b8ea e43c
00000030: 5ced 443d d051 00bc 3902 acbd d484 45bd
00000040: c0c2 31bc 5b51 f1bd e077 9cbc 0c28 01be
00000050: a963 1d3e 7832 2cbe d605 ce3d 6ca7 293d
00000060: def0 da3d 19ff 04be cb3d c6bd 32b5 f73d
00000070: d4c2 413d 79f6 97bd 5200 b23d a077 f03b
00000080: a957 323e 2a42 ca3d 2853 8cbd 9e18 dc3d
00000090: 67d5 0e3e c060 513d 310b afbd aee4 df3d
000000a0: 72d5 23be 4104 223e 3418 11be bf7a 85bd
000000b0: d169 273e 3009 98bc aab9 c33d 20d3 abbd
000000c0: 0048 88ba 8083 513b b1aa 0b3e c7fe 0cbe
000000d0: 4a94 f93d 5cb4 0dbd 3266 ce3d fa6b da3d
000000e0: e075 9ebd 006f 9abc 0ec5 0fbe a828 ccbc
000000f0: 34e5 99bd 1113 f9bd 9cda 1bbe 809c 12bb
00000100: 7e37 01be 483e a13c a8a8 8c3c abc5 0e3e
00000110: 7e07 a13d a0e5 553d 21bc 13be b000 4ebd
00000120: 4c47 273d e036 9abb 060c e83d bd29 243e
00000130: b11f 313e 76ec d2bd b571 073e 0403 6a3d
00000140: 9e59 ab3d 1dd5 ffbd 11b8 2a3e babc e0bd
00000150: 2a02 2bbe e054 1e3c 8612 d73d 2fc9 e9bd
00000160: ed30 273e 449b 32bd 10d9 033d e293 e93d
00000170: 0040 b138 e8fd 623d 93ce d7bd 60f7 ee3c
00000180: ba7c b1bd 2289 e93d a0f1 753d fec6 fe3d
00000190: 534b 043e 1c0b 37bd 1bd1 0b3e 0ccc 4d3d
000001a0: b870 78bd d688 14be ee20 9a3d 28b7 f3bd
000001b0: 95a8 123e 9aac 67bd ba08 cd3d 9014 1dbd
000001c0: 6ace 14be 2977 2bbe 706e dabc 6280 33be
000001d0: 1800 2b3d 7c92 8abd 00cb c53a 348e 17be
000001e0: 904c c83c b338 d5bd aa7c bb3d ae39 a93d
000001f0: 6f8b 2c3e 001a fd3b e84b 6b3d 4065 3f3b
00000200: 4a6b 26be 42c5 1bbe a206 c83d b1a1 303e
00000210: ca1c ecbd 64ba 42bd 939e 073e e0de 5e3c
00000220: 10a0 c7bc 52a5 28be 90d4 b53c c88d f1bc
00000230: a22d 8f3d 09f7 2bbe 6121 2f3e ab5f 2e3e
00000240: 78ed 80bd 541c 15be 7873 6ebd 88a7 d63c
00000250: d087 20bd 83fd e5bd a950 043e f0d4 7b3c
00000260: 68b4 2fbd 80d7 963b 2320 343e 98ee 6a3d
00000270: de25 9d3d 003b 02bb 1aae b1bd 3de9 05be
00000280: 7703 28be 9d26 293e 2e84 29be 5045 79bc
00000290: 465e f93d 4bec 1fbe f039 ddbd 00f1 ecbb
000002a0: f060 cc3c c498 02be 5150 023e 57f8 0c3e
000002b0: a006 c43b c0da 443b beec dabd 59cf c4bd
000002c0: 372b c7bd c0af bd3c 0774 0c3e 3443 943d
000002d0: b0f0 f2bc 3d66 1a3e f036 c5bc a49c 2fbd
000002e0: ac15 10be 988a 80bd 27ee 0ebe d67a 933d
000002f0: 3ef2 b23d 9172 c7bd ce29 87bd 8097 c4bb
00000300: c3e5 28be 5063 063c 1f03 10be 521f fc3d
00000310: cc79 c6bd 09f1 063e c107 1bbe b8b5 653d
00000320: 9990 2a3e f68c 97bd 466e b43d 7490 23be
00000330: 4444 853d 9530 193e 54ed 5b3d 9c04 17be
00000340: 47ab 073e be67 e23d 2b9f 143e 80d7 06bd
00000350: ece0 57bd 7ef2 17be 2a9b 0dbe 4d0e 163e
00000360: feff 19be 06ff 7cbd f0ea b7bd c06e e4bc
00000370: 106a 753d c9ff 073e 94da 193d 4762 8fbd
00000380: 57f4 0d3e 18e9 91bd b209 fc3d 4f4c 233e
00000390: 1038 c9bc 02c5 febd 9008 c6bd 9c21 42bd
000003a0: e3ae bbbd 3156 00be 2270 acbd e04a 383c
000003b0: 2cf7 3dbd 52a4 c73d d26a 9a3d c84e fabc
000003c0: 9a4c c33d c0ae 14bb 64d2 3cbd 48cd bb3c
000003d0: 3232 f43d dcd4 36bd a0ed 15bd 4b70 303e
000003e0: 1a61 11be 5c3a 743d 9eb0 d53d 406a 453b
000003f0: c36a 87bd 20db da3c f89e 3cbd 705f 17be

lstm.bias_ih_l0 f4 [128]
0.01061087 0.21925102 0.08657391 -0.03089632 0.22287935 0.07552384 -0.04101136 -0.033123948
-0.13886885 -0.07064846 0.1326101 -0.106013194 -0.07316921 0.10599443 -0.14766929 -0.19795465
-0.096368015 -0.13161963 0.20530793 -0.056152042 -0.107997105 0.07326184 -0.018836709 -0.06374564
-0.11223673 0.1961271 -0.13703127 0.064656354 0.16840492 -0.011667954 0.04536023 -0.08766237
0.05091977 0.14286475 -0.12818806 0.14960836 0.049409106 0.019198358 0.10856567 0.1630709
0.020736918 -0.036034495 0.11832856 -0.16196072 -0.10513074 0.17589568 0.058718592 0.009345502
-0.053183146 0.062840566 0.1407227 -0.12842387 0.14642741 -0.14959872 -0.0064742267 -0.0706366
-0.0847233 -0.012366071 0.09568642 -0.005279273 -0.07575923 0.07235697 0.15773968 -0.03255163
0.120721035 -0.20916702 0.08456398 0.12838203 -0.063790545 0.17932245 0.044778697 0.2520106
-0.04972679 0.047501996 -0.13394143 -0.18296221 -0.2045815 0.11140568 0.02975829 0.10350379
0.041250117 0.026174711 -0.03834509 -0.10021463 0.12886702 -0.18394622 -0.08240138 0.13605121
0.019569555 -0.04243648 0.018773548 0.23210515 -0.18735665 -0.1378186 -0.0028162217 -0.20569639
-0.22262958 -0.047537062 -0.10830665 0.03125188 -0.07770231 -0.10296484 -0.06155369 0.09278051
0.062036444 0.057170317 0.12330272 -0.0066037057 0.18618023 0.08606251 0.060566258 -0.22231252
0.056229398 -0.087305605 0.20089732 -0.17035878 -0.07342283 0.029743401 -0.19799916 0.24868438
-0.006115678 0.21432543 -0.06168671 0.014329255 0.20506743 -0.093221515 -0.08802024 0.105213195
00000000: 37d9 2d3c 5783 603e aa4d b13d 471a fdbc
00000010: 7c3a 643e 3eac 9a3d 87fb 27bd faac 07bd
00000020: a333 0ebe 24b0 90bd f1ca 073e 721d d9bd
00000030: bdd9 95bd 9c13 d93d 9e36 17be a0b4 4abe
00000040: 985c c5bd 4cc7 06be 3e3c 523e afff 65bd
00000050: 962d ddbd 4e0a 963d 714f 9abc 138d 82bd
00000060: 5fdc e5bd 8bd5 483e ed51 0cbe 8d6a 843d
00000070: 5772 2c3e f22a 3fbc a6cb 393d 5488 b3bd
00000080: 4091 503d 234b 123e bb43 03be ef32 193e
00000090: 3461 4a3d e045 9d3c ae57 de3d 0ffc 263e
000000a0: 78e0 a93c e898 13bd 3e56 f23d 08d9 25be
000000b0: c94e d7bd ff1d 343e e882 703d e01d 193c
000000c0: 92d6 59bd 8eb2 803d 9d19 103e 8c81 03be
000000d0: 11f1 153e 6830 19be c025 d4bb eca9 90bd
000000e0: 6983 adbd 109b 4abc 3ef7 c33d c0fd acbb
000000f0: a827 9bbd e42f 943d 8386 213e dc54 05bd
00000100: 973c f73d e12f 56be e12f ad3d 9476 033e
00000110: 9ea4 82bd 4ea0 373e de69 373d 8907 813e
00000120: 52ae 4bbd 7491 423d f127 09be 725a 3bbe
00000130: d07d 51be a928 e43d a8c7 f33c ccf9 d33d
00000140: e2f5 283d 596c d63c be0f 1dbd 543d cdbd
00000150: b7f5 033e 665c 3cbe 0ec2 a8bd 0251 0b3e
00000160: 5550 a03c e0d1 2dbd fcca 993c f9ac 6d3e
00000170: 6cda 3fbe 5220 0dbe 5c90 38bb 13a2 52be
00000180: 02f9 63be 39b6 42bd e0cf ddbd f901 003d
00000190: 6422 9fbd 3bdf d2bd b91f 7cbd b503 be3d
000001a0: ed19 7e3d 6c2b 6a3d 2386 fc3d e663 d8bb
000001b0: 08a6 3e3e 8b41 b03d 5314 783d e5a5 63be
000001c0: cc50 663d 48cd b2bd 07b8 4d3e 8872 2ebe
000001d0: b55e 96bd 6fa8 f33c 4bc0 4abe 1ea7 7e3e
000001e0: 0766 c8bb 2078 5b3e 34ab 7cbd 40c5 6a3c
000001f0: 32fd 513e ecea bebd f543 b4bd 047a d73d

lstm.bias_hh_l0 f4 [128]
-0.017604921 0.06370518 -0.17134248 -0.034176502 0.23636666 0.029223997 -0.036005173 0.12910889
-0.14539982 0.0031561947 0.08728156 -0.102383435 -0.042747784 -0.03498392 0.027454998 -0.2179182
-0.14763942 0.031968717 -0.04634845 -0.1555749 0.049127575 -0.036918238 0.03232917 -0.030256812
0.05945888 0.077131666 -0.01245962 0.16390075 0.24155553 0.11937046 -0.21078897 0.11704552
-0.049774587 -0.002070576 0.014779061 0.14623867 0.13152666 -0.08361728 0.06204517 -0.1524359
0.13577552 -0.095932126 0.06812073 0.119184 0.106133506 0.13982858 0.12399669 0.0031056553
0.0648396 -0.013857931 0.04380855 0.12638302 0.064459234 -0.12699695 0.033696517 0.08911614
0.06610809 0.083477154 -0.16107497 0.05679606 -0.0856585 -0.044071466 -0.086550824 -0.17078383
-0.0010101277 -0.059624467 -0.09644807 -0.13052529 0.21605943 -0.11985933 -0.09875885 -0.063926734
0.061897956 0.16338558 -0.11830111 -0.00056570733 -0.020160377 -0.15990019 0.096890256 -0.09793627
0.10837421 -0.053158298 -0.20269719 0.11685076 0.22403683 -0.22536266 0.013409182 0.09964261
0.09616361 0.19746965 -0.1314617 -0.101942986 -0.08135493 -0.19966477 0.05884201 -0.116267286
-0.082953244 0.19192722 0.015582062 -0.049123608 0.11083956 -0.058385737 -0.14373642 0.2236806
-0.08790089 0.030091163 0.20924479 -0.083361216 0.09671568 -0.18062837 -0.13761228 -0.13245842
-0.20848897 0.074174985 0.035876114 -0.18749538 0.09590293 0.09935416 0.024844334 0.17337786
0.12469439 0.13167028 -0.053901576 -0.081134506 0.18727839 0.18627341 -0.15634757 0.12665708
00000000: 3238 90bc dd77 823d 6774 2fbe a9fc 0bbd
00000010: 1a0a 723e 2a67 ef3c 297a 13bd 1f35 043e
00000020: b1e3 14be 29d8 4e3b adc0 b23d 68ae d1bd
00000030: 4d18 2fbd 4d4b 0fbd 4ee9 e03c f325 5fbe
00000040: ca2e 17be a1f1 023d dfd7 3dbd 074f 1fbe
00000050: ff39 493d 9437 17bd 976b 043d 22dd f7bc
00000060: 288b 733d 35f7 9d3d 6f23 4cbc 99d5 273e
00000070: 555a 773e 8078 f43d 10d9 57be 90b5 ef3d
00000080: 70e0 4bbd 80b2 07bb e023 723c 97bf 153e
00000090: edae 063e 893f abbd 1423 7e3d 2818 1cbe
000000a0: bd08 0b3e 1078 c4bd e282 8b3d be16 f43d
000000b0: 865c d93d 392f 0f3e faf1 fd3d 4088 4b3b
000000c0: a0ca 843d 600c 63bc 9870 333d 8d6a 013e
000000d0: 3403 843d 7d0b 02be 5c05 0a3d 8682 b63d
000000e0: ae63 873d 12f6 aa3d d6f0 24be fca2 683d
000000f0: b96d afbd 4884 34bd 8f41 b1bd f5e1 2ebe
00000100: 4366 84ba c938 74bd 9186 c5bd 6ca8 05be
00000110: af3e 5d3e cf78 f5bd 1442 cabd 05ec 82bd
00000120: b688 7d3d 8d4e 273e da47 f2bd fa4b 14ba
00000130: 6027 a5bc e0bc 23be 666e c63d d092 c8bd
00000140: 4cf3 dd3d 84bc 59bd da8f 4fbe 744f ef3d
00000150: e969 653e 78c5 66be 30b2 5b3c 6d11 cc3d
00000160: 6df1 c43d 7c35 4a3e e59d 06be 7cc7 d0bd
00000170: 6a9d a6bd ec74 4cbe 5204 713d 8b1d eebd
00000180: 64e3 a9bd 9288 443e e84b 7f3c d635 49bd
00000190: daff e23d e225 6fbd a42f 13be 870c 653e
000001a0: 6205 b4bd be81 f63c 4444 563e 49b9 aabd
000001b0: df12 c63d a5f6 38be 3cea 0cbe 2ea3 07be
000001c0: 227e 55be 0ee9 973d d5f2 123d cafe 3fbe
000001d0: c168 c43d 327a cb3d 5886 cb3c f789 313e
000001e0: c65f ff3d 93d4 063e e6c7 5cbd d929 a6bd
000001f0: e8c5 3f3e 75be 3e3e 9419 20be 65b2 013e

fc.weight f4 [1, 32]
0.047642212 0.18632261 0.014830444 0.0011173567 -0.14946744 -0.08298819 -0.01665585 -0.0959621
0.018502837 -0.15843862 0.119534105 0.09685485 0.2070439 0.091520324 0.07068743 0.07745822
0.009807913 -0.0043043424 0.23118739 -0.10053797 -0.17623796 0.0678782 -0.025857398 -0.23014694
-0.03541792 -0.108283356 0.017238544 -0.08684553 0.15503542 0.07504293 0.08863724 0.06752782
00000000: 7b24 433d 5bcb 3e3e 64fb 723c 4574 923a
00000010: fe0d 19be b6f5 a9bd d971 88bc c787 c4bd
00000020: 4393 973c bc3d 22be 4cce f43d d65b c63d
00000030: 5103 543e 026f bb3d 92c4 903d 6aa2 9e3d
00000040: 5eb1 203c 710b 8dbb 63bc 6c3e dae6 cdbd
00000050: b977 34be ba03 8b3d e5d2 d3bc a4ab 6bbe
00000060: 6212 11bd aac3 ddbd d937 8d3c 12dc b1bd
00000070: 9bc1 1e3e 1cb0 993d 7187 b53d 074c 8a3d
